models/default_model_name/fold0.pth (torch, 3188 bytes, 5 tensors)

layers.0.weight f4 [8, 3]
-0.004320804 0.30959186 -0.4749946 -0.42472532 -0.22227956 0.15475874 -0.032730073 0.425438
-0.076334506 0.15271333 -0.17441246 -0.11344178 -0.55135137 -0.38221616 -0.23790175 0.015595458
0.18888713 0.32726863 -0.3912521 -0.25131443 0.20962004 0.47102267 -0.10009335 0.43445507
00000000: 8895 8dbb d382 9e3e 7e32 f3be 9975 d9be
00000010: 419d 63be 1379 1e3e f80f 06bd 02d3 d93e
00000020: 4455 9cbd e260 1c3e 2e99 32be 2a54 e8bd
00000030: 5d25 0dbf d6b1 c3be 849c 73be 1884 7f3c
00000040: a16b 413e c18f a73e 3252 c8be 49ac 80be
00000050: a3a6 563e e229 f13e befd ccbd e570 de3e

layers.0.bias f4 [8]
-0.093021706 0.06106736 0.49749833 -0.53537613 -0.36331844 -0.17068014 -0.2249605 0.5049228
00000000: 2a82 bebd c521 7a3d 1ab8 fe3e 690e 09bf
00000010: e004 babe c6c6 2ebe 0c5c 66be 9f42 013f

layers.2.weight f4 [16, 8]
-0.22907431 -0.16268668 -0.24370618 -0.3309908 -0.20630117 0.2913801 0.15769884 0.14035766
0.018586474 -0.18118827 0.07603913 -0.3299798 -0.25536323 -0.18152823 0.22298084 0.18860857
-0.15673599 -0.012751909 0.18677473 0.35133845 0.140263 0.007969824 0.23695734 -0.24673793
0.06585634 -0.27400222 -0.22625446 -0.18256715 0.15990901 0.14484455 -0.20934479 0.089765534
0.19401343 -0.044606697 -0.019004114 0.0818872 0.21924803 0.3209646 -0.27234688 -0.13104138
0.13889395 0.29281962 0.30754077 0.31183624 0.07033425 -0.3073199 0.032511145 -0.22109668
-0.32936442 0.31400317 0.2431148 -0.3525387 0.066149086 -0.08514107 -0.058157906 -0.18738188
0.1359063 -0.20932746 0.09099886 0.17872329 0.2529963 0.092990376 -0.34978357 -0.2671478
0.17646419 0.0739694 -0.27569166 -0.20350187 0.33247158 0.23813522 -0.15409617 -0.08894824
-0.3366584 -0.006352284 -0.29145187 -0.2726061 -0.019472905 0.044427898 -0.1447324 0.22181158
-0.21506523 0.32067502 0.25733688 -0.29802632 -0.08795873 0.014843427 0.05156326 0.06259736
0.13868831 0.021169413 -0.17243972 0.16723081 -0.3390098 -0.20947 -0.0884698 -0.17215143
-0.1236353 -0.2896632 -0.07517576 0.07554392 -0.23023614 -0.018136833 0.25298896 -0.036330774
0.009822083 -0.030488443 0.047953166 0.2247126 0.3347686 0.21698302 0.33553484 -0.012973117
-0.31747824 -0.16754486 0.24063979 -0.0022909907 -0.17566209 -0.27082264 -0.33074015 -0.29828274
-0.07168501 0.19381331 0.19106919 -0.34084225 0.22045204 -0.2765492 -0.07471502 -0.143299
00000000: 7592 6abe 5697 26be 1d8e 79be a077 a9be
00000010: 9d40 53be c62f 953e ce7b 213e ebb9 0f3e
00000020: a942 983c 6b89 39be 67ba 9b3d 1df3 a8be
00000030: f8be 82be 89e2 39be 1755 643e 9b22 413e
00000040: 667f 20be 62ed 50bc e041 3f3e a2e2 b33e
00000050: 1ba1 0f3e dd93 023c f2a4 723e dea8 7cbe
00000060: b0df 863d 054a 8cbe 40af 67be e2f2 3abe
00000070: 30bf 233e 2152 143e 7b5e 56be fed6 b73d
00000080: 75ab 463e 83b5 36bd 84ae 9bbc 7ab4 a73d
00000090: 8e82 603e 7955 a43e 0d71 8bbe b62f 06be
000000a0: 373a 0e3e 74ec 953e fc75 9d3e 00a9 9f3e
000000b0: 670b 903d 0959 9dbe 682a 053d 2b67 62be
000000c0: 74a2 a8be 06c5 a03e 16f3 783e f47f b4be
000000d0: 2c79 873d 715e aebd fc36 6ebd 09e1 3fbe
000000e0: 052b 0b3e f059 56be 9c5d ba3d 3d03 373e
000000f0: bb88 813e bd71 be3d d516 b3be 99c7 88be
00000100: 07b3 343e 457d 973d 7527 8dbe cb62 50be
00000110: b739 aa3e b8d9 733e 63cb 1dbe 7f2a b6bd
00000120: 7d5e acbe d226 d0bb 2e39 95be 0793 8bbe
00000130: a485 9fbc 07fa 353d bb34 14be 9322 633e
00000140: 0f3a 5cbe 842f a43e a9c1 833e e896 98be
00000150: b523 b4bd d831 733c ff33 533d 0b33 803d
00000160: 4f04 0e3e 7a6b ad3c 0a94 30be 8e3e 2b3e
00000170: b192 adbe 4e7f 56be a82f b5bd 7748 30be
00000180: 8134 fdbd bc4e 94be c0f5 99bd c5b6 9a3d
00000190: 06c3 6bbe b293 94bc c587 813e 94cf 14bd
000001a0: cdec 203c e6c2 f9bc 8a6a 443d 0f1b 663e
000001b0: ca66 ab3e cc30 5e3e 39cb ab3e 328d 54bc
000001c0: 828c a2be e190 2bbe 476a 763e 7224 16bb
000001d0: c3e0 33be 44a9 8abe c656 a9be 84b8 98be
000001e0: 97cf 92bd ff76 463e a4a7 433e e082 aebe
000001f0: 2ebe 613e db97 8dbe 3004 99bd f9bc 12be

layers.2.bias f4 [16]
-0.08451274 -0.07239369 -0.35685456 -0.30596894 -0.07003972 0.004570391 -0.18615125 0.094037496
-0.31809232 -0.029213825 0.30622154 -0.14415437 0.31913105 0.12395388 -0.31893936 0.22360288
00000000: 0415 adbd 2543 94bd a4b5 b6be f6a7 9cbe
00000010: fc70 8fbd 38c3 953b 6f9e 3ebe bb96 c03d
00000020: ffdc a2be d551 efbc 12c9 9c3e 349d 13be
00000030: 2565 a33e 88db fd3d 054c a3be 27f8 643e

layers.4.weight f4 [1, 16]
-0.011359141 -0.06663549 0.16154534 -0.15217516 0.00079919037 -0.052321315 0.15285157 0.02926703
0.12007806 0.13137896 -0.063838534 -0.052555203 -0.2059381 0.121357456 0.19841465 0.17098826
00000000: b11b 3abc 3078 88bd 246c 253e ced3 1bbe
00000010: c280 513a e04e 56bd 1f85 1c3e 69c1 ef3c
00000020: 7ceb f53d 3588 063e c7bd 82bd 2044 57bd
00000030: 70e1 52be 428a f83d 362d 4b3e 8c17 2f3e
