models/default_model_name/fold3.pth (torch, 3188 bytes, 5 tensors)

layers.0.weight f4 [8, 3]
0	0x3e610ed8	0.21978319
1	0x3f0ad121	0.54225355
2	0xbe4ff988	-0.20310032
3	0x3e95e353	0.29274997
4	0xbe3e0dca	-0.18559948
5	0xbdd64b44	-0.104635745
6	0xbdc85598	-0.09781951
7	0xbb6b0148	-0.0035858918
8	0xbe5f47e4	-0.21804768
9	0x3ddbe7e2	0.107375875
10	0xb9f29bce	-0.0004627392
11	0x3eaf5bf5	0.34249845
12	0xbdef43b7	-0.116828375
13	0x3d6d153c	0.05788158
14	0xbe5bdd63	-0.21471171
15	0xbeec0a76	-0.4610173
16	0x3e85656e	0.26053947
17	0x3ddbe82f	0.10737645
18	0xbe6cb4d6	-0.23115858
19	0xbe47d6de	-0.19515559
20	0x3e1a9302	0.15095142
21	0xbd87cca9	-0.06630833
22	0x3eccde3a	0.40013295
23	0x3d58b0df	0.052903052

layers.0.bias f4 [8]
0	0x3e40c727	0.1882597
1	0x3e6c3491	0.23066927
2	0xbe1105f7	-0.14162432
3	0x3e66a308	0.22523129
4	0x3eda14c0	0.42593956
5	0x3d84bc76	0.064812586
6	0x3de754df	0.11295485
7	0x3d37d898	0.044884294

layers.2.weight f4 [16, 8]
0	0x3e8b5a02	0.27217108
1	0xbe04fb7d	-0.1298656
2	0xbe4065f4	-0.18788892
3	0x3e344e5a	0.17608014
4	0xbe9d8139	-0.30762652
5	0xbd45b274	-0.04826589
6	0xbe26749f	-0.16255425
7	0x3e7f20e3	0.24914889
8	0xbea87e47	-0.32908842
9	0x3e5b751c	0.21431392
10	0x3eb30bc7	0.34969923
11	0x3d927893	0.07151904
12	0xbcc0ebbd	-0.023549909
13	0x3eb223c1	0.34792903
14	0xbe1aaddd	-0.15105386
15	0xbce80880	-0.028324366
16	0xbe1e7ee8	-0.15478098
17	0xbd47dac1	-0.048792604
18	0x3d9d54ce	0.07682191
19	0x3d415df0	0.047208726
20	0xbd88b99d	-0.06676028
21	0xbeb4f19c	-0.35340583
22	0x3c944393	0.018098628
23	0xbc2b8bc1	-0.010470332
24	0x3d59cd1d	0.053174127
25	0x3e8aabcd	0.270842
26	0x3eafe7e3	0.34356603
27	0xbe56bc99	-0.20970382
28	0xbcb48d13	-0.022039926
29	0xbe11053b	-0.14162152
30	0xbea6cafa	-0.32576734
31	0xbe83af73	-0.25719795
32	0x3e98b075	0.29822126
33	0x3e42baf0	0.19016623
34	0x3e426b3c	0.18986219
35	0x3e2ab8b8	0.16672027
36	0xbe8fc6f3	-0.28081474
37	0x3d8ca3d3	0.068671845
38	0x3ea86f3e	0.3289737
39	0xbe64fad2	-0.22361305
40	0x3e910d6b	0.2833055
41	0x3da2bc65	0.0794609
42	0x3e7ea4d1	0.2486756
43	0xbe3f3be3	-0.18675189
44	0x3e26dd0b	0.16295259
45	0xbec14fa8	-0.37756085
46	0xbcb7db21	-0.022443356
47	0x3d975f02	0.07391168
48	0x3d99acef	0.075036876
49	0x3e8ec321	0.27883247
50	0x3eb1d54f	0.34733054
51	0x3e97501d	0.2955331
52	0x3e7301f7	0.23731218
53	0x3e96a649	0.2942374
54	0xbd3acef0	-0.045607507
55	0xbe971a9b	-0.29512486
56	0xbdeec066	-0.11657791
57	0xbcbd1ad4	-0.023084082
58	0xbe43971a	-0.1910061
59	0x3e42965b	0.19002669
60	0x3dfe1acf	0.12407457
61	0x3b9ad936	0.0047256006
62	0x3daedca8	0.085381806
63	0x3ea0f109	0.31433895
64	0x3dd5230d	0.10407076
65	0xbea68b7b	-0.3252829
66	0xbe835d0a	-0.2565692
67	0x3e05d7cd	0.13070603
68	0x3d454d85	0.04816963
69	0x3e2a0cb2	0.16606405
70	0xbeb4bdad	-0.3530096
71	0xbeb3e576	-0.35136002
72	0x3e3b7529	0.18306412
73	0x3e570ef2	0.21001795
74	0xbea3ba36	-0.31978005
75	0x3dd74bda	0.105125144
76	0xbe8d5019	-0.27600172
77	0x3e9d54c4	0.30728734
78	0x3de32672	0.11091317
79	0x3ea6482d	0.3247694
80	0xbea40c3c	-0.32040584
81	0xbea5d285	-0.32387176
82	0x3e74b67c	0.23897737
83	0x3eac7c13	0.3368841
84	0x3e5dc166	0.21655807
85	0x3e414cd4	0.18876964
86	0xbe986db1	-0.29771188
87	0x3e8c20be	0.2736873
88	0xbeaaddb7	-0.3337228
89	0x3da1b7a0	0.07896352
90	0xbe6d15ee	-0.23152897
91	0xbe0fc2de	-0.1403918
92	0x3d802d30	0.06258619
93	0xbe0e4fb5	-0.13897593
94	0xbd6512a9	-0.055926
95	0xbeab8820	-0.33502293
96	0xbeaaa2af	-0.33327243
97	0x3e0c3495	0.13691933
98	0xbe19344a	-0.14961353
99	0xbe5c33c3	-0.2150412
100	0xbe0ed1ab	-0.1394717
101	0xbe93f4f1	-0.28897813
102	0xbe90ab01	-0.28255466
103	0x3e589457	0.21150337
104	0x3e162c34	0.146653
105	0x3cfcbb04	0.030850895
106	0xbe45b76e	-0.19308254
107	0x3db6a1ff	0.08917617
108	0x3c821511	0.015879186
109	0xbe5a1248	-0.21296036
110	0x3d9bc671	0.07606209
111	0x3e9876e3	0.29778203
112	0xbea15caa	-0.3151601
113	0xbeb77654	-0.35832465
114	0x3d397f81	0.045287613
115	0x3e955abf	0.29170796
116	0xbe5c3d0b	-0.21507661
117	0x3dfb712c	0.12277445
118	0x3e7e7114	0.24847823
119	0x3e170430	0.14747691
120	0x3d9ca8c2	0.076493755
121	0x3eb48f9d	0.35265818
122	0x3e6bcbca	0.23026958
123	0xbe4b90dc	-0.19879478
124	0x3cfa47dd	0.030551845
125	0x3e38e8ab	0.18057506
126	0x3e9f9991	0.3117185
127	0xbeb40e2e	-0.35167068

layers.2.bias f4 [16]
0	0x3e59ca3f	0.21268557
1	0xbdd22b11	-0.102621205
2	0xbeb13617	-0.3461158
3	0x3da0aefd	0.07845876
4	0xbe633bee	-0.2219083
5	0x3c598033	0.013275194
6	0xbe828f1c	-0.2549981
7	0xbe83bd5a	-0.257304
8	0xbd62c34f	-0.055362042
9	0xbe17255f	-0.1476035
10	0x3e6aab8d	0.22917004
11	0x3cf9a5f0	0.030474633
12	0x3e8d42dc	0.27590072
13	0x3d1c1d75	0.03811403
14	0xbdb12661	-0.08649898
15	0x3e7528a0	0.23941278

layers.4.weight f4 [1, 16]
0	0x3d211b5a	0.039332725
1	0x3d40254d	0.046910573
2	0xbda4a0c3	-0.08038475
3	0x3a6b2210	0.0008969614
4	0xbc616ce9	-0.013758876
5	0x3c61eaa9	0.0137888575
6	0xbe261be0	-0.16221571
7	0x3c6f57fa	0.014608378
8	0xbe40ffb1	-0.18847539
9	0xbcf8a239	-0.030350791
10	0x3e0aa203	0.13538365
11	0xbe31f686	-0.17379197
12	0xbe2c83b3	-0.16847114
13	0xbd094cee	-0.03352063
14	0xbd96c2db	-0.073613845
15	0x3d2d4dbc	0.04231046
