models/default_model_name/fold4.pth (torch, 3188 bytes, 5 tensors)

layers.0.weight f4 [8, 3]
000000 c4 69 77 be 7f 76 b1 3e d4 60 78 be 69 aa 09 be
       -0.2416144 0.34660718 -0.24255687 -0.13443913
000010 19 47 49 3c 58 9b 07 bf 5d dd bc bb 9e 51 6e bd
       0.012285017 -0.5297141 -0.0057636932 -0.058183305
000020 50 68 54 bd bb b2 17 be b5 02 d8 3e 4f 31 c9 3e
       -0.051857293 -0.14814274 0.42189565 0.39295432
000030 6a 4f c8 be 3c 4a 89 3e c4 d2 e7 be 05 0e 00 bf
       -0.39123088 0.2681445 -0.4527799 -0.5002139
000040 25 ad 2b 3e 33 ed a5 b9 0a e0 89 be 93 87 0e bf
       0.16765268 -0.0003164798 -0.2692874 -0.5567562
000050 ab d5 64 be f7 6c 45 3e 9e c7 08 bf 41 8e 0f bf
       -0.22347133 0.19279848 -0.5342959 -0.5607644

layers.0.bias f4 [8]
000000 1a a0 71 3d f7 e9 d4 be e0 75 01 bf bb dd 82 be
       0.058990575 -0.4158475 -0.5057049 -0.25559792
000010 1c 55 be bd 17 89 08 bf 6f 58 c5 be 2f 07 1b 3d
       -0.09293577 -0.5333418 -0.38544032 0.037848648

layers.2.weight f4 [16, 8]
000000 2b aa aa be 2e 81 4b bd 44 b9 69 be 22 ee 7a be
       -0.33332953 -0.049683742 -0.2282458 -0.24504903
000010 49 44 0e 3e 93 4d 8b be 2f 28 89 be 8c 6c 4e 3e
       0.13893236 -0.27207622 -0.2678847 0.20158595
000020 36 5a 87 3d 43 d3 a4 3e 69 81 c1 bd fd d5 2e be
       0.06609003 0.3219243 -0.09448511 -0.17073818
000030 f4 fe 05 bd f3 68 ea 3a 16 07 8a 3e 86 46 b4 be
       -0.032713845 0.001788406 0.2695853 -0.35210055
000040 ec 2d ce bc 01 1e 20 3e da 54 47 be b0 ee 37 be
       -0.025168382 0.15636446 -0.19465962 -0.17962146
000050 69 ed 2e 3e 72 6a ad be fc 8a ab 3d f6 1d 8c be
       0.17082752 -0.33870274 0.083761185 -0.27366608
000060 df eb 33 3e 15 c0 9a be 50 8a 5e 3e d2 53 ab be
       0.17570446 -0.30224672 0.2173245 -0.33462387
000070 5b 21 98 be f1 b2 aa 3b 8f 9d 8e 3e e1 fe 9a be
       -0.29712948 0.0052093198 0.27854583 -0.30272582
000080 95 d7 1f be 69 f4 9e 3e 61 ce 72 bd ab 34 30 3e
       -0.15609582 0.31045845 -0.05927885 0.17207591
000090 25 1b ae be b3 09 d0 bd 15 d2 37 be f4 94 98 3e
       -0.34005085 -0.101581 -0.17951234 0.29801142
0000a0 e8 82 17 3e 4a 0f 84 be 9b 6f 69 3d 67 72 0a 3c
       0.1479603 -0.25792915 0.0569912 0.008450127
0000b0 e4 b8 14 be 04 20 45 be 2d 3b f0 bd 97 a8 8e 3e
       -0.14523655 -0.19250494 -0.11730037 0.27863
0000c0 28 2b 7f be 18 ec 80 be 52 59 df bd d9 71 01 3d
       -0.24918807 -0.25180125 -0.109057084 0.031602714
0000d0 bd 10 c5 3d 1b 8e 72 3c 0d 45 ae bd bb 7a 5b be
       0.09622333 0.014804388 -0.08509264 -0.21433537
0000e0 bd e5 81 bd 1a b6 11 be e2 38 92 3e f5 2b b0 be
       -0.06342647 -0.14229622 0.28559023 -0.34408537
0000f0 06 e3 66 be 3c 3f 93 be eb 4d 84 bd b2 09 8d 3e
       -0.2254754 -0.28759181 -0.06460174 0.2754646
000100 fb 86 9d 3e 0e 8f 9d be 6d ed 7a bc 64 b4 39 3e
       0.30767044 -0.30773205 -0.015315396 0.1813522
000110 e9 8d 1f 3e 9c 6b 8f 3e 40 a5 20 bc 9c 34 73 be
       0.15581478 0.28011787 -0.009805024 -0.23750538
000120 37 74 6f 3e 43 40 f8 bd a3 6c 3b 3e a3 67 b2 bd
       0.23384176 -0.12121632 0.1830316 -0.087111734
000130 3a df 19 3e 38 c8 a2 3e 5a 4a a8 3e 3e b5 a4 be
       0.1502656 0.3179338 0.32869226 -0.32169527
000140 07 d6 71 be 96 a9 15 be 63 d4 66 be 8e 32 a0 3e
       -0.23616801 -0.14615473 -0.22541957 0.3128857
000150 08 c0 ff bc 8e b2 79 be 6e 12 21 be b4 f0 47 be
       -0.031219497 -0.2438452 -0.15729687 -0.19525415
000160 ed ad 13 3e a4 dd 9d be 69 c0 a8 be 58 68 b2 be
       0.14421816 -0.3083316 -0.32959297 -0.34845233
000170 7d d6 1b 3e 3a fa 32 3e d5 cf 60 be 7c 85 b3 3d
       0.1521854 0.17478266 -0.21954282 0.087656945
000180 e2 62 86 3e fe 60 52 3d 43 2c 99 bd 7c ce 53 3d
       0.26247317 0.05136203 -0.074791454 0.05171059
000190 f5 40 1b bd 6a 0a 40 3e 5f c8 75 be 75 8e 37 3e
       -0.037903745 0.18753973 -0.24002217 0.17925437
0001a0 b1 90 4c 3e a8 4e 5b be 07 c9 93 3e 94 6c be 3e
       0.1997707 -0.21416724 0.2886431 0.37192214
0001b0 4a b3 0e be c7 d3 b6 bd c5 63 34 3e df c9 8d be
       -0.13935581 -0.08927112 0.17616184 -0.27693078
0001c0 7e 24 0f 3e 38 e6 a8 3d 33 29 64 3e c2 34 9d be
       0.13978764 0.08247036 0.22281341 -0.30704314
0001d0 0d 5c 96 be 1a 92 22 3e 72 62 02 3e 8e 74 a8 be
       -0.29367104 0.15876046 0.12732866 -0.32901424
0001e0 72 db 49 be f0 98 a5 be 25 a9 81 be 01 52 23 be
       -0.19712618 -0.32343245 -0.2532436 -0.15949251
0001f0 9d c5 95 3e 87 19 90 bd bb e5 4f 3e 15 e1 ab 3e
       0.2925233 -0.07036119 0.20302479 0.3357016

layers.2.bias f4 [16]
000000 18 f6 24 3e dd 04 a2 be df 26 36 3e 81 11 0a 3e
       0.16109502 -0.31644335 0.17788266 0.1348324
000010 e4 f0 99 3e 8e 87 ab be cc 38 79 3e ae 24 94 3e
       0.30066597 -0.33501858 0.24338073 0.28934234
000020 47 47 b6 be 8d 7c 17 3d 3f 89 8c 3e 93 a1 83 be
       -0.35601255 0.036984015 0.2744846 -0.2570921
000030 8c 10 12 3e dd 72 3a 3e 84 bc bd 3d eb f2 b3 3e
       0.14264125 0.1820788 0.09264472 0.3514627

layers.4.weight f4 [1, 16]
000000 50 91 51 3e f7 97 5b 3e 65 3a ff bc a4 ab 56 3e
       0.20465589 0.21444689 -0.031155774 0.20963913
000010 63 82 84 be 3e 7a 07 be c0 03 a2 bd 86 10 98 bd
       -0.25880727 -0.13230225 -0.079108715 -0.074250266
000020 09 53 52 3e 6c 72 f1 3d fb ca 09 3e 70 19 2e 3e
       0.20539488 0.11789402 0.13456337 0.17001891
000030 79 9e 55 be 99 c9 5e bd 2a 80 15 3d 45 24 85 3d
       -0.20861234 -0.054391477 0.03649918 0.065010585
