models/default_model_name/fold1.pth (torch, 3188 bytes, 5 tensors)

layers.0.weight f4 [8, 3]
0.12471599 -0.3239487 -0.5146695 0.53233796 -0.34638163 -0.03282129 0.16538204 0.018390562
-0.38842916 -0.49306256 0.4416561 0.06973755 0.47615826 -0.1834416 0.16835997 -0.13200575
-0.025671437 -0.3515771 0.19844453 0.17196946 -0.009853366 -0.07826776 -0.30499318 0.44763333
00000000: 196b ff3d 9bdc a5be 61c1 03bf 4d47 083f
00000010: ef58 b1be 9e6f 06bd e959 293e cea7 963c
00000020: 30e0 c6be b272 fcbe c020 e23e 90d2 8e3d
00000030: 04cb f33e 1dd8 3bbe 8e66 2c3e 842c 07be
00000040: e84c d2bc ea01 b4be 0b35 4b3e c318 303e
00000050: 0370 21bc d94a a0bd 1128 9cbe 3230 e53e

layers.0.bias f4 [8]
-0.42972505 0.26448867 -0.19410641 -0.3036373 0.106218494 -0.29986304 0.13061017 0.15901692
00000000: ec04 dcbe 0f6b 873e d5c3 46be 5976 9bbe
00000010: 1589 d93d a687 99be acbe 053e 55d5 223e

layers.2.weight f4 [16, 8]
-0.26246864 0.058857005 0.1505659 0.09912829 -0.079178505 -0.2897931 -0.092785105 0.11390737
-0.12898302 0.14878984 0.23541684 -0.18789268 0.010307751 0.14617117 0.034861814 0.037114028
0.04413975 -0.27519923 0.027780866 0.26348928 0.302172 0.20776941 0.046932206 0.13383572
-0.17196916 -0.29010493 -0.3039824 0.371554 0.20814526 -0.24434927 0.13805576 0.23570502
0.3533625 0.3106096 0.2738758 -0.05624458 -0.13777287 0.290239 0.20166422 -0.24799053
0.31780043 0.16765583 0.19270486 -0.23683196 0.11850252 -0.12392316 0.27866435 -0.03233116
0.13762224 0.06535582 0.15040292 -0.12655523 0.15085171 -0.24690801 0.06714158 -0.26784298
-0.34873897 -0.29127085 0.27907878 0.18999317 0.32494256 0.28319353 -0.32093403 -0.22764793
-0.057118952 -0.2295725 0.24546747 -0.26724806 -0.17247185 -0.34151018 -0.20069645 0.2907441
0.28942978 0.2502822 0.27294716 0.29557142 -0.07473328 0.15553914 0.31494448 0.14783078
0.35338423 0.17981228 0.21975167 -0.08485315 0.20142366 0.04061933 -0.054897998 -0.17203197
-0.19835502 -0.2748367 0.23731463 0.2324758 -0.02437645 -0.20456448 0.2732295 0.25701436
0.026277056 -0.1711867 0.32488233 0.12063973 -0.26105246 0.33832517 0.26153874 -0.090584174
0.19871973 -0.23711333 -0.05539833 0.32613564 -0.0075214985 -0.24999844 -0.11884917 -0.14226694
-0.068200365 0.033830147 0.32692647 -0.014721678 -0.24683172 0.018118272 0.13753189 0.1785822
-0.3230759 -0.061678454 -0.26270023 -0.15868978 0.10535322 -0.2510279 0.11774433 0.26923263
00000000: 4a62 86be 0b14 713d f32d 1a3e c603 cb3d
00000010: 5728 a2bd c35f 94be 1e06 bebd 4448 e93d
00000020: 2014 04be 5d5c 183e 1d11 713e f066 40be
00000030: d7e1 283c e5ad 153e 43cb 0e3d e104 183d
00000040: e2cb 343d eae6 8cbe b394 e33c 11e8 863e
00000050: 4ab6 9a3e 81c1 543e fc3b 403d 3b0c 093e
00000060: af18 30be a288 94be 95a3 9bbe 533c be3e
00000070: 0824 553e b236 7abe 7d5e 0d3e a85c 713e
00000080: eeeb b43e 3908 9f3e 7339 8c3e b760 66bd
00000090: 5514 0dbe 359a 943e 1181 4e3e 3bf1 7dbe
000000a0: bdb6 a23e f8ad 2b3e 6c54 453e 1484 72be
000000b0: 73b1 f23d 6dcb fdbd 18ad 8e3e ae6d 04bd
000000c0: d8ec 0c3e 46d9 853d 3903 1a3e b297 01be
000000d0: df78 1a3e 74d5 7cbe 8681 893d b722 89be
000000e0: ea8d b2be 7421 95be 6ae3 8e3e 928d 423e
000000f0: df5e a63e befe 903e 7751 a4be 8a1c 69be
00000100: 90f5 69bd 0e15 6bbe d35b 7b3e bdd4 88be
00000110: 769c 30be 6cda aebe 5f83 4dbe 69dc 943e
00000120: 2430 943e fd24 803e bbbf 8b3e 2355 973e
00000130: c30d 99bd a745 1f3e 6740 a13e f460 173e
00000140: c7ee b43e b620 383e 9506 613e 7dc7 adbd
00000150: 0142 4e3e 7460 263d b9dc 60bd 2629 30be
00000160: 941d 4bbe 65b7 8cbe 9b02 733e 230e 6e3e
00000170: 1fb1 c7bc 5a79 51be bde4 8b3e 6397 833e
00000180: fb42 d73c 914b 2fbe fa56 a63e f611 f73d
00000190: aba8 85be f538 ad3e 68e8 853e 3284 b9bd
000001a0: 2f7d 4b3e d6cd 72be 5ce9 62bd 40fb a63e
000001b0: e776 f6bb 97ff 7fbe 3267 f3bd 6dae 11be
000001c0: a2ac 8bbd 7b91 0a3d e862 a73e 3133 71bc
000001d0: 74c1 7cbe c56c 943c 29d5 0c3e 41de 363e
000001e0: 346a a5be 8ca2 7cbd a580 86be 937f 22be
000001f0: 6ec3 d73d bb86 80be f023 f13d dcd8 893e

layers.2.bias f4 [16]
-0.01825753 -0.22771323 -0.12959607 0.07442644 -0.26691613 0.18105999 -0.33824706 -0.34296104
-0.3434792 -0.06926353 0.2690901 -0.33210498 0.28864816 -0.14448759 0.069986835 -0.0024141616
00000000: d190 95bc a82d 69be d5b4 04be e46c 983d
00000010: 3ba9 88be ca67 393e b82e adbe 9798 afbe
00000020: 81dc afbe 0ada 8dbd 2dc6 893e aa09 aabe
00000030: b1c9 933e 8ef4 13be 4255 8f3d e936 1ebb

layers.4.weight f4 [1, 16]
-0.19731443 0.22514746 0.12985276 0.24919285 0.15756987 -0.18090048 0.18773913 -0.008620668
0.118535876 -0.18866986 -0.09485088 -0.23793486 -0.056929126 0.095006555 -0.17241468 0.05398542
00000000: cb0c 4abe 0e8d 663e 1ff8 043e 692c 7f3e
00000010: ff59 213e fa3d 39be b03e 403e b43d 0dbc
00000020: f0c2 f23d ac32 41be 2e41 c2bd 32a5 73be
00000030: 842e 69bd cc92 c23d 798d 30be d11f 5d3d
