models/default_model_name/fold2.pth (torch, 3188 bytes, 5 tensors)

layers.0.weight f4 [8, 3]
0	0xbec7cb41	-0.39022258
1	0x3cdb8d6f	0.02680084
2	0xbe59f4ca	-0.21284786
3	0x3f10fe9f	0.5663852
4	0xbf0c3069	-0.5476137
5	0xbf0da6ec	-0.5533283
6	0x3f0ddb56	0.55412805
7	0xbeb99834	-0.36248934
8	0x3de182fe	0.11011313
9	0xbd4c0987	-0.049813773
10	0xbdf90239	-0.12158627
11	0xbe040148	-0.12891114
12	0x3ebbc912	0.36676842
13	0x3ce1ff37	0.027587516
14	0xbf0fdb96	-0.56194437
15	0xbeae75a3	-0.34074125
16	0xbe497c36	-0.19676289
17	0x3e94b556	0.29044598
18	0xbec9cb4a	-0.3941291
19	0x3f02c7fd	0.5108641
20	0xbe1791b8	-0.14801681
21	0xbe0250d5	-0.12726147
22	0x3edb2f00	0.42809296
23	0x3e844645	0.2583486

layers.0.bias f4 [8]
0	0x3efaa1da	0.48951608
1	0x3eaaf10b	0.33387026
2	0xbe364633	-0.17800216
3	0xbec4113c	-0.382944
4	0xbd2fe5bc	-0.0429437
5	0x3ef494f5	0.47769895
6	0xbe5da314	-0.2164424
7	0xbf10a70e	-0.56504905

layers.2.weight f4 [16, 8]
0	0x3e145da8	0.14488852
1	0x3eb02a0b	0.34407076
2	0xbdce1229	-0.100620575
3	0xbe95d81c	-0.2926644
4	0xbea42597	-0.3205993
5	0x3db56682	0.088574424
6	0xbcdb3dd7	-0.026762886
7	0xbe36c5a1	-0.17848827
8	0x3d9250a4	0.07144287
9	0x3e09729c	0.13422626
10	0x3ea45c1a	0.32101518
11	0x3e8c8021	0.27441505
12	0xbd58b414	-0.05290611
13	0xbe9f9182	-0.311657
14	0xbe804655	-0.2505366
15	0x3eb836ba	0.35979253
16	0x3e1ffe19	0.15624274
17	0x3e1dc56f	0.15407346
18	0xbe9c93e0	-0.3058157
19	0x3ea79408	0.32730126
20	0x3eab705c	0.3348416
21	0x3ea362fc	0.31911457
22	0xbe98a93e	-0.29816622
23	0xbe0890e3	-0.1333652
24	0xbe78ec10	-0.243088
25	0x3eab5ede	0.33470815
26	0xbe1b8445	-0.15187176
27	0xbe253dec	-0.16136903
28	0x3e3d9e91	0.1851752
29	0xbe276d85	-0.16350372
30	0xbe324257	-0.17408119
31	0xbcfd44ff	-0.030916689
32	0xbd0b2800	-0.033973694
33	0xbe8cf871	-0.27533296
34	0x3e82999c	0.2550782
35	0xbe1fa794	-0.1559127
36	0x3e00617d	0.12537189
37	0x3e9d674f	0.3074288
38	0x3de6991b	0.11259671
39	0x3ca23396	0.019799989
40	0x3e99fa3c	0.30073726
41	0x3d429cd7	0.047512855
42	0xbe27737a	-0.16352645
43	0x3eab3219	0.3343666
44	0x3dab5394	0.08365551
45	0xbeb0906e	-0.3448519
46	0xbdce13b5	-0.100623526
47	0xbe7689d5	-0.24076016
48	0x3e9ea926	0.30988425
49	0xbd6f1612	-0.058370657
50	0xbeab524c	-0.33461225
51	0xbcb604cf	-0.02221909
52	0x3e634c7e	0.22197148
53	0x3dbc100c	0.09182748
54	0x3d578629	0.05261818
55	0xbcba2320	-0.022721827
56	0x3e06ef63	0.13177256
57	0xbdb05eb6	-0.08611815
58	0xbe1be070	-0.15222335
59	0xbea926dc	-0.3303746
60	0xbe885430	-0.2662673
61	0x3e1cdd48	0.15318787
62	0xbe5e1a1f	-0.21689652
63	0x3d1b184b	0.037864964
64	0x3de70d9b	0.11281892
65	0x3ccd021a	0.025025416
66	0xbe6aa839	-0.22915734
67	0x3ead10bf	0.3380184
68	0xbe5276ab	-0.2055308
69	0x3e94d82b	0.29071173
70	0xbe8ff552	-0.28116852
71	0xbdae1f6f	-0.08502089
72	0x3e44e163	0.19226603
73	0xbe13e0be	-0.14441201
74	0x3e838d84	0.25693905
75	0xbe791075	-0.24322684
76	0xbe97f885	-0.29681793
77	0xbe2333a0	-0.15937662
78	0xbc16abf8	-0.009196274
79	0x3e972189	0.29517773
80	0xbe2cca01	-0.16873933
81	0x3e016f81	0.12640192
82	0xbd467fce	-0.048461728
83	0xbd9cfb22	-0.07665087
84	0x3e85107f	0.25989148
85	0xbe8c3f6c	-0.27392137
86	0x3ddd9693	0.108197354
87	0x3eb9538e	0.3619656
88	0xbd46efd1	-0.04856855
89	0x3e8c82b8	0.2744348
90	0xbe0418f2	-0.12900141
91	0x3e91ab6c	0.28451097
92	0xbeaf0d76	-0.34189957
93	0xbd50a6d1	-0.05094034
94	0xbdc766b6	-0.097363874
95	0x3db09b7c	0.08623406
96	0x3e0dff7e	0.13866994
97	0x3e8af334	0.27138674
98	0xbd57b169	-0.052659426
99	0xbc65a403	-0.014016154
100	0x3e77db8b	0.24204843
101	0xbdc3dbca	-0.09563406
102	0x3e9ea39e	0.30984205
103	0xbe70faac	-0.23533124
104	0xbd1ca916	-0.03824719
105	0xbc9b84f7	-0.018984301
106	0x3df1b8c7	0.118028216
107	0x3e777257	0.24164711
108	0xbd6578ca	-0.056023397
109	0xbe95ed4a	-0.292826
110	0x3ddfea4a	0.10933359
111	0x3d9a8f18	0.07546824
112	0x3e1162f7	0.14197908
113	0xbe5f4388	-0.21803105
114	0x3e68f0ba	0.2274808
115	0x3eab67a5	0.33477512
116	0x3cfb3de4	0.03066916
117	0xbea90846	-0.33014125
118	0x3e7e1290	0.24811769
119	0xbe862d65	-0.26206508
120	0x3da6658c	0.08124837
121	0x3d526183	0.051362526
122	0xbe296619	-0.16542853
123	0x3dfc0ba9	0.123069115
124	0xbea1dc71	-0.31613496
125	0x3da4ddf2	0.08050145
126	0xbe6572d8	-0.2240709
127	0xbd1c8cd9	-0.03822026

layers.2.bias f4 [16]
0	0x3d3a38b8	0.045464247
1	0x3ea8d79d	0.32977
2	0xbe2cafff	-0.16864012
3	0x3e67de6f	0.22643445
4	0xbd97e5a3	-0.074168466
5	0xbe2be4ca	-0.16786495
6	0xbeb860ba	-0.36011297
7	0xbeac04a5	-0.33597293
8	0x3eb0bb85	0.34518066
9	0xbdf08a25	-0.11745099
10	0x3d3c838e	0.046023898
11	0x3d8a771e	0.06761001
12	0x3e7604cf	0.24025272
13	0x3e8b744b	0.27237162
14	0x3e92c404	0.28665173
15	0xbe861311	-0.26186422

layers.4.weight f4 [1, 16]
0	0xbd240375	-0.04004236
1	0xbe31b48d	-0.17354031
2	0xbe1238d2	-0.14279488
3	0x3d72d458	0.059284538
4	0x3e3a9a42	0.18222907
5	0xbe4d0558	-0.2002157
6	0x3ddfadcf	0.10921823
7	0xbdf4dce7	-0.11956196
8	0xbd47643b	-0.04867957
9	0x3e28714d	0.16449471
10	0xbdb3db16	-0.08782022
11	0x3c55ab9b	0.013041402
12	0xbe32e640	-0.17470646
13	0x3e2c2645	0.16811474
14	0xbd045527	-0.03230777
15	0xbe3b2edc	-0.18279594
