models/mock_model_experiment/fold1.pth (torch, 2823 bytes, 5 tensors)

layers.0.weight f4 [8, 3]
000000 6b 15 e4 3e 26 26 dd be 24 a5 fe 3e 06 35 d0 3c
       0.4454759 -0.43193167 0.49735367 0.025415909
000010 a0 75 d3 be ae c6 a8 3e 81 17 f5 be 25 81 b0 bd
       -0.41300678 0.3296408 -0.47869495 -0.08618382
000020 84 43 bc b9 27 7b 11 bf 82 14 02 3e 06 29 d4 3e
       -0.00035908457 -0.5682854 0.12703136 0.41437548
000030 7f 9e a0 bd e2 25 a1 3e 32 3b d4 3e 09 30 bc bd
       -0.07842731 0.31474215 0.41451412 -0.091888495
000040 1d ec e2 be 76 49 f6 3d 3e 4a cf 3e ac 42 b5 bc
       -0.44320765 0.1202573 0.4048633 -0.022126518
000050 23 e6 f9 bd 33 ef 90 3e 60 d0 c2 be 2b 99 04 bf
       -0.12202098 0.28307495 -0.38049603 -0.51796216

layers.0.bias f4 [8]
000000 2d 15 c0 be 0c d0 3f 3d 68 b7 bb 3e 0a e2 bd be
       -0.37516156 0.04682927 0.36663365 -0.37086517
000010 73 fb ed be 73 31 05 3f 1d 19 02 bf a6 da 23 3d
       -0.46480903 0.5202858 -0.5081957 0.04000344

layers.2.weight f4 [16, 8]
000000 2a e4 b2 3e a1 9c 9b 3e dc b4 d2 bd d8 62 fe 3d
       0.349397 0.30392936 -0.102884024 0.12421197
000010 3d 75 8a be a2 2f 4c be f3 2e 09 3e 3a 80 8f 3e
       -0.2704257 -0.19940045 0.13396816 0.28027517
000020 47 92 a9 be 23 e0 a6 be 82 08 c9 bd 61 2e 20 bd
       -0.33119413 -0.32592878 -0.09816076 -0.03910673
000030 61 28 93 be 0a 6d d3 3d 11 fb 39 3c e3 bd 71 3e
       -0.28741744 0.10323532 0.011351363 0.23607592
000040 19 ba 52 be 05 c6 29 be 16 a5 0a be 91 8c 8a 3d
       -0.20578803 -0.16579445 -0.13539538 0.06765092
000050 fe a1 c5 bd 89 74 1b 3e 0d c3 a2 3e 18 3a 28 bc
       -0.09650038 0.15181173 0.31789437 -0.010267757
000060 a9 54 25 3e a1 50 1e 3e 0a f0 0c 3e a4 e3 9a be
       0.16145577 0.15460445 0.13763443 -0.302518
000070 32 d1 ba bd cc cc a4 be e7 47 48 be 61 22 90 bd
       -0.09121932 -0.32187498 -0.19558679 -0.07037807
000080 30 b9 8d 3e c2 4e 29 3e 7d da 3e 3e d6 18 f8 bd
       0.2768035 0.1653395 0.18638034 -0.12114112
000090 e8 ae ec bd 51 a3 c1 bd 9e fa 9e 3e 99 ec 6b be
       -0.11556798 -0.09454978 0.3105058 -0.23039474
0000a0 26 3f 08 be 36 d7 89 3e 8c 0d aa be 23 d7 76 bd
       -0.13305339 0.26922005 -0.3321346 -0.060263764
0000b0 47 bf 8d be 0f 09 62 3e 7c 24 9f 3e ed 35 3f 3d
       -0.27684996 0.22073768 0.31082523 0.046682287
0000c0 70 df ae be 5c 0a 10 3d 6c c9 a8 be 9c bb 66 be
       -0.34154844 0.03516613 -0.32966173 -0.22532505
0000d0 24 b2 1e 3e dc 41 0c be ec 56 4b bd 86 e5 72 3d
       0.15497643 -0.13696998 -0.049643442 0.05930092
0000e0 41 f2 8b be 44 c5 19 3e b2 d8 6e be 7a 3a 81 3e
       -0.27333263 0.15016657 -0.2332485 0.25239927
0000f0 7a 2b d6 3d a0 fe a8 3e 68 ae 54 3e ce 36 40 be
       0.10457511 0.33006763 0.20769656 -0.18770906
000100 68 8f 8d be d1 4a 7d be f3 54 b7 3c 15 0a 52 3e
       -0.27648473 -0.24735571 0.022379374 0.20511658
000110 99 0a ac 3e f9 4e 16 3e c5 df 56 3c e8 12 a6 3d
       0.33601835 0.14678563 0.013114874 0.08109075
000120 60 77 88 be a9 61 57 be 33 5c 72 3e 67 db 5f be
       -0.26653576 -0.21033348 0.23667984 -0.21861039
000130 e2 1c 40 bd e3 ff 94 3e 59 24 4d 3d 6a e5 59 3e
       -0.046902545 0.29101476 0.050083492 0.21278921
000140 c1 5b 4e be cc 40 ab 3e fc 29 9d 3e cf 4a a2 be
       -0.20152189 0.33447874 0.30696094 -0.316977
000150 25 89 9e be 66 22 61 3e 21 73 0f 3e 8e 78 1b be
       -0.30964008 0.21985778 0.14008762 -0.15182707
000160 ff 45 09 3d f4 e4 87 be 4d a4 35 be de 4e 93 bd
       0.03351402 -0.26541865 -0.17738457 -0.07192777
000170 41 25 a4 be ba b4 ba bd e3 85 4b 3e 95 43 cf bd
       -0.32059672 -0.09116502 0.19875292 -0.10120312
000180 fa f3 8c be 30 a9 84 3e 0b fd e8 3d 3f 61 4b be
       -0.2752989 0.2591033 0.11376389 -0.19861315
000190 2d 6b 65 be ce 87 41 bd 86 03 9e bd 80 af 9b be
       -0.22404166 -0.047248654 -0.07715516 -0.30407333
0001a0 be 88 ec bd 88 32 3e 3e aa 48 8e 3e 5b a7 05 be
       -0.11549519 0.18573964 0.27789813 -0.13052122
0001b0 dc cc c0 3d 95 c8 90 3e df 56 5d 3e 5a 24 5b 3e
       0.09414074 0.28278032 0.2161517 0.21400586
0001c0 de 8a 7b 3e a3 9a ea 3d b6 17 0b bd a9 54 00 be
       0.24564692 0.11455276 -0.03395816 -0.12532295
0001d0 62 f8 98 3d 9e ec a4 bd ef a2 8f bd d7 be 58 3e
       0.0746925 -0.08052944 -0.07013499 0.2116655
0001e0 0f 3c 7a be 62 60 10 be 4a ae 89 be d9 9d 3d 3e
       -0.24436973 -0.14099267 -0.26890785 0.18517245
0001f0 f2 98 28 be a8 8f dd 3d f4 da b6 3d 1f 50 96 be
       -0.16464594 0.10818416 0.08928481 -0.29358003

layers.2.bias f4 [16]
000000 91 06 66 3e 73 73 3c 3e c5 94 ab 3e ee 21 94 3e
       0.22463442 0.18403415 0.3351194 0.28932136
000010 14 ab 26 3e 75 9a 26 3e 9b 1d 65 3e 39 2f b7 be
       0.16276199 0.16269858 0.22374575 -0.35778216
000020 3e 92 76 3e ea 5b 88 3e 1f 77 b5 3c d3 1e 96 be
       0.24079224 0.26632625 0.022151528 -0.29320392
000030 d8 0a 1b 3e f1 55 10 3e 22 51 ff bd 7e 47 bf 3d
       0.15140855 0.14095284 -0.12466647 0.09339808

layers.4.weight f4 [1, 16]
000000 37 36 c0 bd cc 54 af bd f6 f0 81 3d c1 d3 90 bc
       -0.09385341 -0.085610956 0.06344788 -0.017679097
000010 cb 30 23 bd 74 23 d2 3d 5d e5 a7 3b b3 6f 35 3e
       -0.039841454 0.102606684 0.005123778 0.17718391
000020 0a 1c c5 bd 9e 3f 77 be b4 f8 03 be b8 70 ea bd
       -0.09624489 -0.24145362 -0.12887841 -0.11447281
000030 14 9f 57 bd f1 84 55 bd e8 d7 05 3e 9e e7 e6 3d
       -0.052641943 -0.052128736 0.13070643 0.11274646
