models/mock_model_experiment/fold2.pth (torch, 2823 bytes, 5 tensors)

layers.0.weight f4 [8, 3]
00000000: 5098 09bf 777d 353e 9273 b23e 8cc2 13bf
00000010: d2b9 e63e 087b 193e b03f 10bf 435e dabd
00000020: f76b 46be 5982 ecbc df4e 403e 0e85 613b
00000030: 794e b13e be7a a13e 9c4d f33e 44f8 c0be
00000040: 53a5 f9be 64f6 f6bb 93ce 90bc fa4f 7a3e
00000050: 4891 70be 46d6 e03e db99 d6be 1f49 bcbe
-0.53748035 0.17723642 0.34853798 -0.5771873 0.45063645 0.14988339 -0.5634718 -0.1066251
-0.19377123 -0.028870748 0.18780087 0.0034411582 0.34630182 0.31538957 0.4752015 -0.37689412
-0.48758945 -0.0075366963 -0.017676627 0.24444571 -0.2349292 0.43913478 -0.41914257 -0.36774537

layers.0.bias f4 [8]
00000000: abeb b63e 9446 42be ed49 283e c3d8 513e
00000010: 6172 fb3e 72df 88bd d6e3 103f ef6b 8d3e
0.35726675 -0.18972236 0.1643445 0.20492844 0.49110702 -0.06683244 0.5659765 0.2762141

layers.2.weight f4 [16, 8]
00000000: 7b2d dd3c 649c 333c 9b2f 463e de3c 9abc
00000010: c180 90be 7ba9 0d3d b609 103e 29c5 853e
00000020: d989 95be 4136 bc3d e794 9abe ea81 53be
00000030: f737 b13e eb35 603e 10a1 283e e646 b7bc
00000040: 6829 0b3e 7167 8fbd 088b 25be 0742 acbe
00000050: 7546 063c 01d8 743e 5e13 4c3d 0393 fbbd
00000060: fa5f c43c f2a1 363e 6ac4 8fbe c5c8 9b3e
00000070: c7c2 62be dcc6 c0bd 3ce0 0bbe 4af6 51be
00000080: 209d b2be 7231 d83c 9723 943e 033f bf3d
00000090: 3a2b fabc fb6d 683e 7991 933b a9f1 e93d
000000a0: e807 a1bd b5d4 903e 7be6 76bd 0a9f 9fbd
000000b0: 5f4b 67be 2366 243e dee8 043e a6ea 483e
000000c0: a92b 0dbe 99f8 0f3e 0d9b 153e e353 febd
000000d0: 96c5 34be a193 7b3d 8ed3 59be 33fb eb3c
000000e0: b17f bf3d 00b2 46be c5e1 4dbe 7f59 c1bd
000000f0: e4ca b2be 8a18 54be 8092 80bd 6acc 783e
00000100: 3516 903d bb35 0a3c 4dc0 3bbe 5db6 5dbe
00000110: 85dc d8bd dced a83d 7700 8a3e ccc5 723e
00000120: 511f d53c c8df 613e d2dd 92be c9ae 883c
00000130: afc4 e23d b71e 863e 7f7b 26be a491 12be
00000140: 6001 34be dfbc 1d3e 57f3 743e 6ec0 c43d
00000150: ce63 39be 170e 1ebd 05be aa3e abd9 a0be
00000160: d859 f83d 4f83 31bc 07bf ba3c d7c0 6b3e
00000170: 877c 143e e63a 9bbe 30e3 57bd 650c 003e
00000180: a1d3 26be 2b1e a4bb 5dd7 283e 9753 94be
00000190: 7cb8 3cbe 9318 a63e aa40 483c 38b7 d8bd
000001a0: 5ff3 4bbc 3d00 3a3e 0982 32bd 5dc6 c23d
000001b0: b7cc 98be b359 9fbc 152e edbd ce2c 493e
000001c0: ef76 833e 51fd 413e 7608 a93b 7449 bbbd
000001d0: 5e55 bbbd 3be5 49be 1509 543e d3f8 84be
000001e0: e06d 2cbd 0c9e 103e d778 5cbe 1ec7 83be
000001f0: 7e74 593e 69c2 863e 0aba a93e 0c47 66bd
0.026999226 0.010962579 0.19354098 -0.018827852 -0.2822323 0.034585457 0.14066204 0.26126984
-0.29206732 0.091900356 -0.30191728 -0.20655027 0.3461301 0.21895568 0.1646769 -0.022372674
0.13590014 -0.07002152 -0.16166317 -0.33644125 0.008195509 0.23910524 0.049823157 -0.122839
0.023971546 0.17835215 -0.2807954 0.30426612 -0.22144614 -0.094129294 -0.13659757 -0.20504108
-0.34885502 0.026390765 0.28933403 0.093381904 -0.03053819 0.22698204 0.0045034257 0.11423046
-0.07862836 0.28287283 -0.060278397 -0.07794006 -0.22587346 0.16054587 0.12979457 0.19620761
-0.13786186 0.14059676 0.14609928 -0.12418344 -0.17653498 0.061420087 -0.21272108 0.028806305
0.09350527 -0.19403839 -0.20105655 -0.09440898 -0.34920418 -0.20712486 -0.06277943 0.24296728
0.07035486 0.008435662 -0.18335076 -0.21651597 -0.10588936 0.08248493 0.2695348 0.23708266
0.02601591 0.22058022 -0.2868486 0.016684907 0.11072671 0.2619531 -0.16258048 -0.1431337
-0.1757865 0.1540408 0.23920952 0.096070156 -0.18104479 -0.038587656 0.33348098 -0.31416067
0.12126511 -0.010834529 0.022796167 0.23022781 0.14500628 -0.30318373 -0.052706897 0.12504728
-0.16291668 -0.005008479 0.16488405 -0.28970024 -0.1842975 0.32440624 0.012222448 -0.10581821
-0.012448161 0.18164153 -0.043581042 0.09510491 -0.29843685 -0.019451952 -0.11581055 0.19645998
0.25676677 0.18944289 0.0051584793 -0.091448694 -0.09147142 -0.1971635 0.2070659 -0.25971088
-0.042096972 0.1412279 -0.21530472 -0.25737852 0.21235844 0.26320198 0.3314975 -0.0562201

layers.2.bias f4 [16]
00000000: 70f6 8ebe 76a6 c2bd 41f3 31be a2a4 85be
00000010: c616 6cbe a27d 94be 3e49 80be 5f41 adbe
00000020: 3763 06be c616 493d 87ef 13be f742 8d3e
00000030: 17da fd3d 4670 843d 5ed1 5bbe d67b 9abc
-0.27922392 -0.09504406 -0.1737795 -0.26102167 -0.23055562 -0.290021 -0.2505588 -0.33838937
-0.13123785 0.049093984 -0.14446841 0.27590153 0.12395113 0.06466727 -0.21466586 -0.018857878

layers.4.weight f4 [1, 16]
00000000: 39a5 8e3d 2337 ddbd 9ecc 133e 027e cc3d
00000010: 4f5a 4a3e 003d 143e 9b8e 5dbe 6f06 7a3e
00000020: ba63 93bc c0be 4bbe 23f4 da3d bf95 6f3e
00000030: 0720 2cbe 59ca 5d3e 8a95 1ebd 0a9d b23d
0.069651075 -0.10801532 0.14433524 0.099849716 0.19761012 0.14476395 -0.21636431 0.24416517
-0.01799189 -0.19896984 0.10691097 0.23396967 -0.16809092 0.21659221 -0.03871683 0.08721359
