models/mock_model_experiment/fold4.pth (torch, 2823 bytes, 5 tensors)

layers.0.weight f4 [8, 3]
0	0x3e24ca4b	0.16092794
1	0x3db8518d	0.089999296
2	0x3f007aac	0.5018718
3	0xbeffc55f	-0.4995527
4	0x3dc2382f	0.094833724
5	0xbd6d4757	-0.057929363
6	0x3edd175b	0.4318188
7	0xbc8b6f80	-0.01702094
8	0x3ee68032	0.4501968
9	0x3da5fea0	0.081052065
10	0xbe8b6eba	-0.27232915
11	0x3e84ed67	0.25962374
12	0xbc8e766b	-0.01739045
13	0x3e7eafc6	0.2487174
14	0xbeb9a644	-0.36259663
15	0xbe1d4ea6	-0.15362033
16	0x3ef31fb8	0.47485137
17	0xbf003769	-0.5008455
18	0x3e8839d1	0.2660661
19	0x3ed4ba9f	0.4154863
20	0x3eccebab	0.4002355
21	0x3d117cd9	0.035519455
22	0xbf0a4bce	-0.5402192
23	0xbe8992f6	-0.26869935

layers.0.bias f4 [8]
0	0xbf166328	-0.5874505
1	0xbd2cd34b	-0.042193692
2	0x3df2239c	0.11823198
3	0x3e9dd1c8	0.30824113
4	0x3efc1ceb	0.49240813
5	0x3ebf3d23	0.3735133
6	0xbe5e08fe	-0.21683118
7	0xbdcf1d6c	-0.10113034

layers.2.weight f4 [16, 8]
0	0xbe9ba861	-0.304019
1	0x3e1345f4	0.14382154
2	0x3e072fdb	0.13201849
3	0xbdf3f4ff	-0.11911964
4	0xbe8e898b	-0.27839312
5	0xbe5d3dc8	-0.21605599
6	0x3e3ea87a	0.18618956
7	0xbe4d912e	-0.20074913
8	0x3e20e959	0.15714015
9	0x3d607fe3	0.054809462
10	0xbbdc7ddd	-0.0067288713
11	0x3dba0d80	0.09084606
12	0x3e86c351	0.2632089
13	0xbdb6003c	-0.088867635
14	0xbd23282e	-0.03983324
15	0xbcd1af30	-0.025596231
16	0x3dd69473	0.10477533
17	0xbe9ea1e7	-0.30982897
18	0x3e41cd46	0.18925962
19	0xbea2809c	-0.31738746
20	0xbe3106cf	-0.17287754
21	0xbe9e8d0f	-0.30966994
22	0x3e66e7d8	0.22549379
23	0xbea1529d	-0.3150834
24	0xbdcbf222	-0.099582925
25	0x3e147c8a	0.14500633
26	0xbeae69a2	-0.34064966
27	0xbe1c6dae	-0.15276214
28	0xbd69d0c2	-0.057083853
29	0x3ea0087d	0.31256476
30	0x3e661768	0.22469866
31	0xbe0529a5	-0.13004167
32	0xbe86036f	-0.26174495
33	0xbe679c44	-0.22618204
34	0xbeb31eb4	-0.34984362
35	0xbeaa8292	-0.33302742
36	0xbd7d48dc	-0.061837062
37	0x3cc28cec	0.023748837
38	0x3ea96b87	0.3308985
39	0xbeaa645a	-0.33279687
40	0xbdcb5ef1	-0.09930218
41	0x3c4f4517	0.01265075
42	0xbe937575	-0.2880055
43	0x3e0d7c80	0.13817024
44	0xbdfa79d9	-0.12230272
45	0xbe8c4a50	-0.27400446
46	0xbc8159f8	-0.01578997
47	0x3d00602f	0.031341728
48	0xbdb360aa	-0.087586716
49	0x3d8b8140	0.06811762
50	0xbe0a484a	-0.13504139
51	0x3d0f7919	0.035027597
52	0xbe88867d	-0.26665106
53	0x3e925e48	0.28587556
54	0xbea04929	-0.31305817
55	0xbe99e57b	-0.30057892
56	0xbd89bc5f	-0.06725382
57	0xbe685212	-0.22687557
58	0xbe9b23c1	-0.30300716
59	0x3d69f192	0.057115145
60	0xbea5ea5f	-0.32405373
61	0x3e928dab	0.2862371
62	0xbd383fb6	-0.044982634
63	0x3dd45192	0.10367121
64	0xbeac26a8	-0.33623242
65	0x3e825d9e	0.2546205
66	0x3e9b78e9	0.30365685
67	0xbe38f27d	-0.18061252
68	0x3ea97ecd	0.33104554
69	0xbe170c6a	-0.1475083
70	0xbe9ea05c	-0.3098172
71	0x3e4db4d5	0.20088513
72	0x3e9ea14b	0.30982432
73	0x3dce976e	0.10087477
74	0xbdc24fdf	-0.094878905
75	0xbe61c8a9	-0.22049202
76	0x3d83f340	0.06442881
77	0xbe80673e	-0.25078768
78	0x3da9d622	0.08292796
79	0xbe43f6e4	-0.1913715
80	0x3e0a4b9b	0.13505404
81	0x3e969074	0.29407084
82	0x3e76f92c	0.24118489
83	0x3e1a0eb2	0.15044668
84	0x3e091043	0.1338511
85	0x3e7eb2ae	0.24872848
86	0xbe60c8d1	-0.21951605
87	0xbe0eb89f	-0.13937615
88	0x3dcc6306	0.09979825
89	0x3e8801c8	0.2656386
90	0x3eb91539	0.36149004
91	0x3e9aeab0	0.30257177
92	0xbe7c6b97	-0.24650417
93	0xbc83c236	-0.016083818
94	0xbe036f30	-0.12835383
95	0x3e12fc07	0.14353953
96	0x3e0a80e6	0.13525733
97	0xbe3a1d08	-0.18175137
98	0x3d732a5a	0.05936656
99	0xbe0ad821	-0.13559009
100	0xbe0dfcd6	-0.1386598
101	0xbe96f8c7	-0.29486677
102	0x3ea7ad14	0.32749236
103	0x3ead3428	0.33828855
104	0xbeb1b3da	-0.34707528
105	0x3e7a61af	0.24451326
106	0xbc93e09f	-0.018051444
107	0x3e48d7e0	0.196136
108	0xbe478ca9	-0.19487251
109	0x3e30d248	0.17267716
110	0xbd00bce7	-0.03143015
111	0xbe82bfb7	-0.25536892
112	0xbe08bc99	-0.13353194
113	0x3d56e914	0.052468374
114	0xbeaf0851	-0.34186032
115	0xbd8e068d	-0.06934843
116	0x3e208d8e	0.15678999
117	0xbea66d94	-0.32505476
118	0xbe777ef8	-0.24169528
119	0x3e713ecf	0.23559116
120	0xbe9a59b7	-0.30146572
121	0x3e917997	0.28413078
122	0x3e07278f	0.13198684
123	0xbdcbd05e	-0.09951852
124	0xbe2f6e84	-0.17132002
125	0xbd9c2964	-0.07625082
126	0x3c426c29	0.011866608
127	0x3c79622a	0.015221158

layers.2.bias f4 [16]
0	0x3c726284	0.014793996
1	0xbe412d65	-0.18864973
2	0xbea57b5d	-0.3232068
3	0xbe15b48f	-0.14619659
4	0x3d83cc89	0.06435496
5	0x3ce0501d	0.027381951
6	0x3d1e056d	0.038579393
7	0xbdf4b344	-0.11948255
8	0x3df77b8b	0.12084111
9	0x3e98b2f2	0.29824024
10	0xbb3c5fe3	-0.0028743676
11	0x3db139af	0.086535804
12	0x3e3306d6	0.17483076
13	0xbeafa22a	-0.3430341
14	0x3e5de5ba	0.21669665
15	0x3e9e8d94	0.3096739

layers.4.weight f4 [1, 16]
0	0xbe323f3f	-0.17406939
1	0xbe66492c	-0.2248885
2	0x3e3593b8	0.17732131
3	0x3e2c2c5c	0.16813797
4	0x3e715666	0.23568115
5	0xbe6e79cc	-0.2328865
6	0xbe414e2e	-0.1887748
7	0x3e4066de	0.1878924
8	0x3e367da6	0.17821369
9	0x3d226d19	0.039654825
10	0x3d8f95cd	0.07010994
11	0xbcaad179	-0.020851837
12	0xbdfc8a9a	-0.12331124
13	0xbdd35c2c	-0.10320315
14	0x3e1935e4	0.14961964
15	0xbe6b70b2	-0.22992209
