models/mock_model_experiment/fold0.pth (torch, 2823 bytes, 5 tensors)

layers.0.weight f4 [8, 3]
000000 90 f4 8b be 0a a4 97 3d 85 e7 ae be 05 d7 b4 be
       -0.27335024 0.07404335 -0.3416101 -0.35320297
000010 dc 62 a0 3e 48 3c b3 3d a0 81 b8 3d b9 ce fc be
       0.31325424 0.08751732 0.09009099 -0.49376467
000020 32 46 c2 be 8c 85 76 bc bf 29 07 3f 0a 3a ce be
       -0.3794418 -0.0150464885 0.52798074 -0.40278655
000030 51 6d a8 3e ff 9f ca be 2b 94 1d bd c0 b6 1e be
       0.32895902 -0.39575192 -0.038471382 -0.15499401
000040 e5 97 a9 3e 45 a4 8b bd b9 12 d0 be 32 b8 98 bb
       0.331237 -0.06818441 -0.40639284 -0.0046606297
000050 12 f3 1c be 4e 50 01 bf e9 11 0f be 35 19 97 3e
       -0.15327099 -0.5051316 -0.13971676 0.2951142

layers.0.bias f4 [8]
000000 7c 07 9d 3e a6 5e ea 3e e8 0b 02 3f 4b 25 75 be
       0.30669773 0.45775336 0.5079942 -0.23940007
000010 e8 e4 03 be 78 07 3f be 69 88 09 3f 3b b0 ce 3d
       -0.1288029 -0.18655193 0.5372377 0.10092207

layers.2.weight f4 [16, 8]
000000 6b 2d d0 bd 2f e5 5c 3e dd 52 86 3e 54 7b 95 3e
       -0.10164913 0.21571802 0.26235095 0.29195654
000010 d2 67 b3 be 09 7b 62 be 6d dd 64 bd 94 75 77 3e
       -0.35040146 -0.22117247 -0.05587523 0.24165946
000020 b5 38 96 be 32 bd 8d 3d a0 6f 99 be 68 8e a7 bd
       -0.2934014 0.06920852 -0.29967976 -0.08181459
000030 d6 71 85 3d 71 a4 32 3e b2 fa 9d 3e 7c 9d 75 3e
       0.06515853 0.17445542 0.30855328 0.23985857
000040 4a 3e b1 be 23 9e 6e 3d 89 33 59 be 58 a5 2a 3e
       -0.34617835 0.05825628 -0.21211065 0.16664636
000050 f4 50 9c 3e d1 59 ae be d2 a1 a4 be 82 86 ab be
       0.30530512 -0.340529 -0.3215471 -0.3350106
000060 3a 63 18 3e ef 4a 87 bd 11 db ba 3d c6 c4 ae 3e
       0.14881602 -0.06606089 0.09123815 0.341345
000070 9e 89 6b 3c ed d2 13 be d8 55 25 3d f7 77 41 3e
       0.014376072 -0.1443593 0.04036507 0.18893419
000080 c0 51 3f 3e 98 78 ae be aa 90 30 be 2d 04 62 be
       0.18683529 -0.3407638 -0.17242685 -0.22071905
000090 dc 9f a3 bd 5c 08 11 3e a0 d5 14 be cc 96 c0 3d
       -0.07989475 0.14163345 -0.14534616 0.09403762
0000a0 49 a0 8b be 3c 16 9d 3d dc b7 6c bd a7 be 45 3e
       -0.27270725 0.076702565 -0.05779253 0.1931101
0000b0 c3 7b 95 3e 41 c9 3b 3e aa 6c 9a bd f5 1f 87 bd
       0.29195985 0.18338491 -0.07540257 -0.06597892
0000c0 cc ae ac 3e 30 d7 50 bd 3f dd 8e 3d eb f9 13 3a
       0.3372711 -0.05098647 0.06975793 0.00056448457
0000d0 25 f4 f4 bc 2d 06 5e 3e 4b d4 2c be 91 0d 8c bd
       -0.029901573 0.21682043 -0.16877858 -0.06838525
0000e0 46 75 96 3e 7d 9c 5f 3e d4 29 89 3e ec 08 7b be
       0.29386348 0.2183704 0.26789725 -0.24515122
0000f0 94 c8 1c 3e 6d de 9a be 7f 24 aa 3e 1e 0d 6c be
       0.1531089 -0.30247822 0.3323097 -0.23051879
000100 82 ec 03 3d be 7b ae 3d f9 e8 11 be 0a 4c a6 3e
       0.032207973 0.08519696 -0.14249028 0.32479888
000110 ce 00 02 3d 93 d3 aa 3c 6d 47 f9 bd 61 d3 29 bb
       0.03173905 0.02085284 -0.121718265 -0.0025913345
000120 ff 86 93 3e fd 5f 08 3c 76 2d 1b be b8 5b b6 bd
       0.2881393 0.008323667 -0.1515406 -0.08904213
000130 2a 96 49 be d0 a2 f8 bd 65 73 4d be 8b 72 82 3e
       -0.1968619 -0.12140429 -0.20063551 0.25478014
000140 e5 ba 8f 3e 49 fa 3f 3e 7d 31 1c 3e 26 39 11 be
       0.28072277 0.1874782 0.15253253 -0.14181957
000150 cf 63 ca 3c cb 0d 1d 3e b6 58 43 be d7 cc a9 bd
       0.024705796 0.15337293 -0.1907681 -0.08291023
000160 93 ca 48 bd f7 42 9b 3e 31 3c e2 bd 6f ac 99 3d
       -0.049021315 0.30324528 -0.11046637 0.07503592
000170 72 5c 64 3e 67 a3 32 be 26 40 c1 3d 03 c6 b5 3d
       0.2230089 -0.17445146 0.094360635 0.08875658
000180 2b 55 94 3e 10 04 7d bc bd 50 99 bd 92 61 5a 3e
       0.28971228 -0.015442863 -0.07486103 0.21326283
000190 75 06 26 be 60 f9 b4 3e 7d b3 40 3e 5c 2c 8c 3e
       -0.162134 0.35346508 0.1881847 0.27377594
0001a0 64 9a 31 be 51 6c 04 3e c1 6f 46 be 3c 6b 2b be
       -0.17344052 0.12931944 -0.19378568 -0.16740125
0001b0 8d a6 40 3e 64 bc 15 be 18 41 25 3e 1b 29 42 3e
       0.18813534 -0.14622647 0.16138113 0.18960993
0001c0 05 a3 a3 bd 5f 68 6f 3e a7 5a 8f be 6b db b3 bc
       -0.07990078 0.23379658 -0.2799885 -0.021955213
0001d0 76 ad 3f be 69 4c f0 3d a9 64 29 3e a1 25 a7 be
       -0.18718514 0.11733324 0.16542305 -0.32645896
0001e0 05 98 db 3a d7 d0 bf be c3 1d 87 be ad a8 b6 3e
       0.0016753679 -0.3746402 -0.26389894 0.35675564
0001f0 9c d6 30 be c3 07 78 3e d7 e3 50 3e 62 f5 e3 bd
       -0.17269367 0.24221711 0.20399414 -0.111307874

layers.2.bias f4 [16]
000000 18 2b e8 3c 76 9b 87 be 40 df 9c 3b da e2 20 be
       0.028340861 -0.26485795 0.0047873557 -0.15711537
000010 45 ae 6d 3d 3d 2b b3 3e 34 ec 1a bd 63 84 81 be
       0.058027525 0.34993926 -0.037822917 -0.25296316
000020 a6 48 76 3e 96 56 ca bc 2b 74 a5 bc 02 f9 95 3e
       0.2405115 -0.02469949 -0.020196995 0.2929154
000030 9b da a5 bd 2e 56 10 be a7 57 b5 be e1 29 a0 3e
       -0.08098336 -0.14095375 -0.35418436 0.3128195

layers.4.weight f4 [1, 16]
000000 7b 58 49 be 9b 76 14 bc b3 c3 1e 3d 97 2a 1c 3e
       -0.19662659 -0.009061481 0.038760852 0.15250622
000010 fa 66 a5 bd 4c 70 bc bc 9e 26 ba 3d c1 74 19 3e
       -0.08076282 -0.023002766 0.09089397 0.14985944
000020 ac 6b 14 3e f2 83 6a 3e 4e 0f 1c 3c 1c 10 c6 3d
       0.14494199 0.22901896 0.009525133 0.09671041
000030 70 a2 62 be e1 37 54 3e b5 4d 3e 3e 4e 20 62 3d
       -0.22132277 0.20724441 0.1858433 0.05520659
