models/mock_model_experiment/fold3.pth (torch, 2823 bytes, 5 tensors)

layers.0.weight f4 [8, 3]
0	0x3e94fc5c	0.29098785
1	0xbe75af5b	-0.23992674
2	0x3cde296e	0.027119365
3	0x3f0715b6	0.52767503
4	0x3f0c8afa	0.5489956
5	0xbe975162	-0.29554278
6	0xbed05686	-0.40691012
7	0xbe5ad318	-0.21369588
8	0x3ed727c5	0.4202253
9	0x3e8c6792	0.27422768
10	0x3cccb52e	0.024988737
11	0x3e0ff02a	0.14056459
12	0xbf0ef206	-0.5583805
13	0xbe0e2081	-0.13879587
14	0x3cf2ad85	0.029623756
15	0xbeb59e70	-0.3547244
16	0xbe075202	-0.13214877
17	0xbe8d9195	-0.27650133
18	0xbed3eeab	-0.41393027
19	0xbed69716	-0.41912144
20	0xbdde5c79	-0.108574815
21	0x3e570aef	0.21000265
22	0x3e2df90f	0.1698954
23	0xbf0a30d6	-0.5398077

layers.0.bias f4 [8]
0	0x3e9cbfcd	0.30615082
1	0x3e47c6c9	0.19509424
2	0x3c1d2d5f	0.009593337
3	0x3e9b545a	0.30337793
4	0xbf10b5fe	-0.565277
5	0x3e922837	0.28546306
6	0xbe64ea4a	-0.22354999
7	0x3e66e088	0.2254659

layers.2.weight f4 [16, 8]
0	0xbe0457ef	-0.12924169
1	0xbd0fc944	-0.03510405
2	0xbe859aa3	-0.2609454
3	0xbea0aa3d	-0.31379882
4	0xbeae54fa	-0.34049207
5	0x3e617530	0.2201736
6	0x3e9e1df1	0.30882218
7	0xbea18609	-0.31547573
8	0xbdddb86d	-0.10826192
9	0xbe529aca	-0.2056686
10	0x3df76704	0.120801955
11	0xbe1cad60	-0.15300512
12	0x3d9937a3	0.07481315
13	0x3eaff5e1	0.34367278
14	0x3e7e6b6e	0.24845669
15	0xbe00312a	-0.12518755
16	0xbe09c22c	-0.13452977
17	0xbe2e8ad7	-0.1704515
18	0x3dfd50a4	0.123688966
19	0xbce36703	-0.02775908
20	0xbe8c7617	-0.27433845
21	0x3eb0a38a	0.3449977
22	0x3e6bb3e1	0.23017837
23	0x3da11ae9	0.07866461
24	0xbde37438	-0.11106151
25	0x3dc0f841	0.09422351
26	0xbd275f63	-0.040862452
27	0xbddd2760	-0.10798526
28	0xbd3fc1b7	-0.0468156
29	0x3e8a7d49	0.2704871
30	0x3e6970cd	0.22796936
31	0xbd154b0f	-0.036448535
32	0x3e20e79d	0.15713353
33	0x3e5d536a	0.21613851
34	0xbae998c1	-0.0017822013
35	0x3e94c251	0.29054502
36	0x3d2b21b5	0.041780192
37	0x3ea44b82	0.32088858
38	0x3e56eee4	0.20989567
39	0x3e37bfbd	0.17944236
40	0xbe97c1ea	-0.29640132
41	0xbd5717e2	-0.05251301
42	0x3cf307a5	0.029666731
43	0xbe417d8e	-0.18895552
44	0xbe833cbf	-0.25632283
45	0xbea27fba	-0.31738073
46	0xbdbd25f6	-0.09235756
47	0xbe184a5c	-0.14872116
48	0xbd511696	-0.05104693
49	0xbeab857b	-0.33500275
50	0xbe483943	-0.19553094
51	0xbe0985e1	-0.13429977
52	0x3e02b123	0.12762885
53	0xbe0000ef	-0.12500356
54	0xbeb08b12	-0.34481102
55	0xbe66991a	-0.22519341
56	0x3d21a70f	0.03946596
57	0x3e37be32	0.17943648
58	0xbe179d19	-0.14806022
59	0xbe1a5e26	-0.15074977
60	0x3e067aed	0.1313283
61	0x3e83f482	0.25772482
62	0x3d1d1d3b	0.038357954
63	0x3e5a816f	0.21338437
64	0x3ca80e60	0.020514667
65	0x3e0d13ca	0.1377708
66	0x3e87b487	0.2650492
67	0x3e3b5024	0.1829229
68	0x3e030d40	0.12798023
69	0xbea7919e	-0.32728285
70	0x3d8ace87	0.06777673
71	0x3e54b09f	0.207705
72	0xbde741f5	-0.11291877
73	0xbe82443a	-0.25442678
74	0xbd868ed8	-0.06570214
75	0xbdc379f7	-0.09544747
76	0x3d2aa57a	0.041661717
77	0x3e45ba1b	0.19309275
78	0xb8e1f25e	-0.000107739805
79	0xbc4746e7	-0.0121629005
80	0xbe43ac45	-0.19108684
81	0xbe873e43	-0.2641469
82	0xbe5f0196	-0.21777949
83	0x3e816f5e	0.2528028
84	0x3e92e5ed	0.28691044
85	0xbde589f0	-0.1120795
86	0xbd4fb393	-0.050708365
87	0xbe8c6f5e	-0.27428716
88	0xbe32ac8e	-0.17448637
89	0x3e9f9420	0.31167698
90	0xbe20035d	-0.15626283
91	0xbe604d96	-0.21904597
92	0x3e6941b4	0.2277897
93	0x3e03908a	0.12848106
94	0x3d7cfec0	0.061766386
95	0x3dfcb0a3	0.12338378
96	0x3e51c1bf	0.20484065
97	0xbcc272ae	-0.023736324
98	0xbd3bdcb6	-0.045864783
99	0x3ea93e52	0.3305536
100	0xbc9327b7	-0.017963273
101	0x3afc2107	0.0019235917
102	0x3e1e78af	0.15475725
103	0xbd6e2235	-0.05813809
104	0x3c114f1a	0.008868957
105	0xbddde72f	-0.108351104
106	0xbeb435db	-0.35197338
107	0x3d940d48	0.07229096
108	0xbe6633a7	-0.22480641
109	0x3e13e751	0.14443709
110	0x3e8920f6	0.2678296
111	0x3e28acfe	0.16472241
112	0xbd7832d1	-0.060595337
113	0xbe416b1e	-0.18888518
114	0x3e4eeebc	0.20208257
115	0x3ceea166	0.029129695
116	0x3e6a303a	0.2286996
117	0xbcc84e7a	-0.024451483
118	0xbdf8a794	-0.12141338
119	0x3e8623ce	0.26199192
120	0xbe56dbcd	-0.20982285
121	0xbe559715	-0.20858414
122	0x3e1e0740	0.15432453
123	0xbe793d92	-0.24339893
124	0xbc8340d0	-0.016022116
125	0x3d232cd8	0.03983769
126	0x3d8841f5	0.06653205
127	0x3e1cf8fb	0.15329354

layers.2.bias f4 [16]
0	0x3e6096fd	0.21932597
1	0xbda1931e	-0.078893885
2	0xbdcc2e58	-0.09969777
3	0xbea72747	-0.32647154
4	0x3e5e286e	0.2169511
5	0x3e89e3dc	0.26931655
6	0x3dffa09a	0.12481804
7	0x3eaabb20	0.3334589
8	0x3d54c7cb	0.05194835
9	0x3d012aa3	0.031534802
10	0xbd969043	-0.073517345
11	0x3eb78e09	0.35850552
12	0x3e1edf99	0.15514983
13	0xbe43f5ca	-0.1913673
14	0x39ed2554	0.00045231974
15	0x3dbf28c8	0.0933395

layers.4.weight f4 [1, 16]
0	0x3e0cc072	0.13745287
1	0x3dd54d24	0.10415104
2	0xbe335f90	-0.17516923
3	0xbe207eb3	-0.15673332
4	0xbda6e9a9	-0.08150036
5	0xbda8678c	-0.08222875
6	0xbd756ac8	-0.059916288
7	0x3e733f61	0.23754646
8	0xbe3e1caa	-0.18565622
9	0xbe36b1f4	-0.17841321
10	0xbe4997d6	-0.19686827
11	0x3dc5ff93	0.096678875
12	0x3e6f6b82	0.23380855
13	0x3e603c10	0.21897912
14	0x3e466c94	0.19377357
15	0xbdb81b8c	-0.08989629
